mingpt/shakespearebigramweights.npz (npz, 932042 bytes, 110 tensors)

ln_f.weight f4 [64]
00000000: b846 a23f 81f0 943f 4382 9d3f 9fd7 a53f
00000010: 5528 a03f e33d a23f abc8 9c3f c728 9c3f
00000020: 7775 8f3f 8658 b63f aa95 893f f10e ad3f
00000030: c7fa 943f b35d bc3f 48bb 973f c467 a03f
00000040: bdf7 9b3f e185 933f 03d9 9b3f f810 a43f
00000050: fa9a a43f 70e5 ad3f c2e8 9d3f 162f a23f
00000060: b346 a73f 1928 923f 6539 ac3f 2400 863f
00000070: 19bf 933f a791 ac3f 2560 a03f f094 a23f
00000080: 87e6 aa3f 0829 a93f daf2 a03f 8136 ba3f
00000090: c4fd ab3f a78d a43f c9a5 9c3f 413a a73f
000000a0: 921a 9b3f 0560 a03f aaf2 9b3f c242 8e3f
000000b0: 1b32 953f f983 993f e991 9b3f de2b be3f
000000c0: d854 9f3f 5b6d 9e3f 0d92 8b3f 63f3 993f
000000d0: 3a1a 983f 0eab 973f 1b8a b23f 5108 a43f
000000e0: 7990 af3f bd3e 9b3f c525 a83f e2a2 a83f
000000f0: e35e 983f 81a4 9b3f 814a a83f 9e92 973f
1.2677832 1.1635896 1.2305378 1.2956427 1.2512308 1.2675136 1.2248739 1.2199944
1.1207722 1.4245765 1.0748799 1.3520185 1.1639031 1.4716095 1.1854029 1.2531667
1.2184979 1.1525232 1.2175602 1.2817678 1.2859795 1.3585644 1.2336657 1.267062
1.3068451 1.1418487 1.3455015 1.0468793 1.1542693 1.348195 1.2529341 1.2701702
1.3351601 1.3215647 1.2574112 1.4547883 1.3436818 1.2855729 1.2238094 1.3064653
1.2117484 1.2529303 1.218343 1.1114123 1.1655916 1.19934 1.2153903 1.4857137
1.2447767 1.2377123 1.0903946 1.2027401 1.1883004 1.1849077 1.3948396 1.2815038
1.3715965 1.2128521 1.3136526 1.3174708 1.1903957 1.2159578 1.3147737 1.1841619

ln_f.bias f4 [64]
00000000: c390 0bbd 3762 8dbc 432e e5bd 1aa7 23bd
00000010: 4ea6 bb3c 99f1 c53c d8f9 0c3c 4870 2abd
00000020: aefb c7bc 22b3 9d3b 4798 da3d 5b6b fdbd
00000030: e015 393d ce1d fa3c 9f9e c4bc c337 aabd
00000040: 758a f8bc dba2 18be b366 a1bd 0d4c 273e
00000050: c8a1 1d3e 9267 a83c 04a6 963c 4dda a13c
00000060: c4fa 263e 3537 12be 5512 3c3d f068 783d
00000070: ddc3 e73d a8c4 67bd 4031 61bc 108e 73bd
00000080: 519a 38be 89f1 c5bd 5718 e43d ed06 c83d
00000090: 68aa 6e3b a8ea 05be b66c 33be f774 91bc
000000a0: 3d4a 21be 8a7b b9bd 9de0 14be de2f 203d
000000b0: 682a eabd 19c0 d03d bd5c dd3d e726 1d3d
000000c0: 9795 1ebd eb0a 58bd 15f9 cf3d 59a2 da3d
000000d0: 9344 513d c82f 2d3d 18d1 b53d 73a8 023d
000000e0: 1aaa 01ba 21b3 943c a6d3 123e 0c5f 253d
000000f0: 8fb9 e13c 1d21 093e 720f 533d 7844 113e
-0.034073602 -0.017258747 -0.11190464 -0.039954282 0.022906449 0.024163054 0.008604489 -0.041610986
-0.024412002 0.004812614 0.10673576 -0.12373992 0.045186877 0.03053179 -0.024001418 -0.08311417
-0.030339459 -0.14905874 -0.078809164 0.16337605 0.15393746 0.020557199 0.01838971 0.019757414
0.16306597 -0.14278872 0.04591592 0.06064695 0.11316655 -0.05658403 -0.013744652 -0.059461653
-0.18027617 -0.0966521 0.11137455 0.09766946 0.0036417488 -0.13077796 -0.17521939 -0.017755968
-0.15750976 -0.09056766 -0.14538808 0.03910815 -0.114338696 0.1019289 0.10808704 0.03836718
-0.03871688 -0.052744787 0.101549305 0.106754966 0.051090788 0.042281896 0.08877772 0.031898927
-0.00049463066 0.018151822 0.1433855 0.040373847 0.027554302 0.13391538 0.0515284 0.14186275

blocks.layers.3.ln2.bias f4 [64]
00000000: f9bc 4d3d adbc 343e ae2b 5abd 9225 7b3d
00000010: 9151 56bc 7e26 7a3d 8d14 3c3e 0936 a03c
00000020: bfce 80be 6d1e a0bd 18af ac3d 2df9 22be
00000030: cc62 c9bd 710b 383e d422 bfbd 0bd7 5b3d
00000040: 84ef 653e 9137 c6bd 6f56 7ebe 88e0 473e
00000050: 7bb8 7039 b219 31be 8ad6 123e a2a3 2fbd
00000060: ba76 f3bd 987a 0cbe a9f3 fe3d cf8e bc3d
00000070: 88db cf3d c14a 1d3e c27d a6bc f875 56bd
00000080: 9c9b 993d f729 90bd 16e2 81be d765 86bd
00000090: 1db7 5c3e d7c1 d1bd ae10 01be 67e2 92bd
000000a0: 5c71 36be 5a51 9d3d 771e 1bbd 5897 2cbd
000000b0: 3242 ae3c 7adb 993d 9d84 6c3d e1e8 8d3e
000000c0: 52be 38bd a27b 70ba 0d54 6d3d e62b 4d3e
000000d0: d279 84bd bdd0 a5bb 5f8d 23bd 5ed4 0bbd
000000e0: 8704 e13d f466 113e 0512 0dbd f415 d6bc
000000f0: 0dc7 383e f3c6 96bc 7750 28be 6c78 753e
0.050229046 0.17650099 -0.053264312 0.061315127 -0.01308097 0.061071865 0.18367215 0.019557016
-0.25157735 -0.07818303 0.08431834 -0.15915366 -0.09833297 0.17973115 -0.09332815 0.053671878
0.22454649 -0.09678567 -0.2483766 0.19519246 0.00022956908 -0.17294958 0.14339653 -0.04288066
-0.1188788 -0.13718641 0.12448818 0.09206926 0.10149294 0.15360548 -0.020323638 -0.052358598
0.07500383 -0.07039254 -0.25367802 -0.06562393 0.21554227 -0.1024205 -0.12604019 -0.07172089
-0.1781668 0.07681532 -0.03787085 -0.04213652 0.021271799 0.07512565 0.057743657 0.27716735
-0.04510338 -0.0009173696 0.057941485 0.20036277 -0.06468548 -0.005060284 -0.039929744 -0.034138076
0.10987192 0.1419943 -0.034441013 -0.026133515 0.18044682 -0.018405413 -0.16436945 0.23971719

blocks.layers.3.ffwd.net.layers.2.bias f4 [64]
00000000: c930 3c3b d78c 30bd 768d 76bd c1d1 21bd
00000010: 8f6d 69bb 3646 133c 550f 743d 7a63 08bd
00000020: 25c4 ae3c 7abe 063d 2ee1 b93b e084 e03b
00000030: d84e cb3c 3370 d1bd b89f 083d 4188 473d
00000040: 5947 88bd 1006 0bbb 3a7d c33c 43c2 53bd
00000050: aaa9 70bd a0dd a13d 9a12 da3c 7af6 b33d
00000060: 33c3 8b3d 117a e8bb 49b3 62bd 9d5e adbc
00000070: 5092 ee3b 9b6e 363d 9ca6 3a3d 6673 1f3c
00000080: b2fd 8a3d b427 133b b58d b73d 970f 7abc
00000090: b883 0abd 74cb 4ebd aa33 5c3d 7355 27bd
000000a0: d6ad 093e dbba 7fbd d237 4b3d d8cd 9bbc
000000b0: f157 713d e718 d8bd befb b03c ef3e 6cbd
000000c0: 00d2 f73c d120 30bd 1275 09bd fec0 013c
000000d0: ee28 0ebd 162e b2bd 52e0 54bc f24e 25ba
000000e0: 5048 5dbd 05f6 6cbd 136d 20bb dd09 443d
000000f0: 4822 94bd 4643 873d 8005 e03b c7af 68bd
0.0028715602 -0.043103065 -0.0601935 -0.039506678 -0.003561828 0.008988908 0.059584934 -0.033297993
0.021333763 0.032896496 0.0056725955 0.0068517774 0.024817869 -0.102264784 0.033355445 0.048713926
-0.066542335 -0.002121333 0.023863424 -0.051698934 -0.058755554 0.079036 0.026620198 0.08787246
0.06824341 -0.0070946296 -0.05534676 -0.02116328 0.0072806254 0.044539075 0.045569047 0.009732103
0.0678667 0.0022454085 0.08962575 -0.015262506 -0.033817023 -0.050486997 0.05376021 -0.040852975
0.1344522 -0.06243406 0.04961378 -0.019019052 0.058921758 -0.10551625 0.021604415 -0.057677206
0.030251503 -0.043000046 -0.033558913 0.007919548 -0.034707002 -0.087001964 -0.012992935 -0.0006306014
-0.05402404 -0.05785181 -0.0024479076 0.04786097 -0.07233101 0.06604628 0.006836593 -0.05680826

blocks.layers.3.ffwd.net.layers.0.bias f4 [256]
00000000: ddbe 2cbe b439 4fbe 0096 e3bd d5b6 2fbd
00000010: e1a8 01be 5cd3 b3bb 2263 85bc c1c0 02bd
00000020: 5bf4 aabd 4a9b 21bd 205f 513d a144 37bd
00000030: 6ead 5f3a 2a02 35bc 87d9 11bc 9c0b 2cbe
00000040: 77f3 91bd 0ef0 23be 072b aa3d e708 e9bd
00000050: 095a 32be c177 88be 3886 bebb ea21 27bd
00000060: f6b8 b4bd 803d 47bd 2e0a 22be e30e 73bc
00000070: 6160 b8bc 07d5 1b3d c76b f2bd 123e c5bd
00000080: 31eb 5f3a f606 2abe e997 a1bd 8cc2 f4bd
00000090: d245 a1bd dee4 693b 3322 debd 38d9 24bc
000000a0: 4c55 58be 66e7 453d e41e cebd f944 6a3d
000000b0: d6e6 49bd dc46 eb3a a81d 40be 11d1 2ebd
000000c0: e50d 33bd a0a2 9dbd 9a01 c33c c4ea 47be
000000d0: 3258 2fbe 6714 4bbe 03c4 2cbe 98f2 be3b
000000e0: 1b21 cd3b 3878 2fbd 294a a4bd c093 d2bd
000000f0: 9b40 b7ba 7398 2ebd 3170 a5bd d718 20be
00000100: c3ec cdbd 9e39 61be 3dd8 27bd e5af 16be
00000110: ad74 14be e788 87bc 3245 f3bd 9617 f3bd
00000120: ef39 0abe 4ceb 2fbe b471 94bd 87a3 6ebe
00000130: caf8 ff3c 5d8a 0dbe f1ab 3fbe 3a3d 19be
00000140: 6a02 74be d1d0 cbbd c4ab 063d 2696 2ebe
00000150: 190e 3bbe 242f 0ebe 9ff4 59bc c7c9 96bd
00000160: 9a81 abbd 42d0 1b3c 9095 ba3b c194 16be
00000170: 0062 2e38 be88 08be 95ec 1ebe 0cc9 a1bd
00000180: 9708 babd 2f1f abbd 2b9b 283d bd19 6dbd
00000190: 0883 babd a021 3abd b682 84be b61b 02bc
000001a0: bade 0fbd d7f0 1abe 22ee 37bd 44ff 6fbd
000001b0: b03d 93bd 126c 55be 843f 22be 6814 33bd
000001c0: b812 a2bd 4091 1c3d f537 eebd 742b 85be
000001d0: bd07 553d 0522 5ebe aa58 48bd a62c 443c
000001e0: edb4 3dbe 72e9 18bd bc5e 53be eeb7 0fbd
000001f0: d342 d0ba c1ac 32be f8d7 95bb e5c5 b5bd
00000200: de6c 52be 9e41 2dbe 0600 5abd 217d 2ebe
00000210: 84d0 bfbd ba48 11be e301 06be cbc1 08be
00000220: f0d8 27be 50ca c6bc 1dc3 46be f780 86be
00000230: 13cb 983d 297c e6bd 0ff4 93bc 7405 2dbd
00000240: c3f2 413c a5bc cb3b f7c2 fabd f19e d039
00000250: df49 3b3d 4857 16bd 8132 12bd 9465 85bd
00000260: a655 94bd 2c94 75bd 02a5 2abe ac25 e6bc
00000270: 8c25 94bd 9cdc 9e3a 1f19 37be e39b a5bd
00000280: 0fe4 0cbc 53fc 68bd df53 6b3d cf50 cb3b
00000290: 14ba 86bd ccb9 25be e8a5 1dbe 7509 6bbe
000002a0: a65c 4ebe 595a 3abd 3c88 17be 1d33 cfbd
000002b0: 0719 17be fde2 99bc 0f00 b2bd c673 19be
000002c0: d738 f1bc b7ee e9bc 544b 79bd 3025 aabd
000002d0: 5dca 46be 0c6f e1bd 4ecf 22be 48f6 75bd
000002e0: fd3b fa3c 51ac ecbd b4a7 81bd 9fbe e9bd
000002f0: 5e97 e4bc 13d1 70bd 68bf e2bb b7fb 50bd
00000300: 25f8 803d 3752 bfbd 7253 8dbd c799 a9bd
00000310: 6041 10be 6752 003d 85a9 02be fc7e f4bd
00000320: 467b 81bd 8c03 593d 9967 0abe 4d60 86bd
00000330: 02ac 31bd d50f abbd bfea 05bd 33ee b4bd
00000340: 8eb0 7bbe c3da 63bc 863b 573d 1328 043c
00000350: 3abb 9c3c c212 4fbd d5f4 1fbd 039d 4cbe
00000360: 34d2 51bd 20f3 0bbe dca3 eebd 8061 01bc
00000370: 33c2 a3bd 7ac5 77bd a77b e4bd a773 acbc
00000380: 9fd7 26be 367f febd dad5 31bd 94df c03d
00000390: 46cb 92bd 93aa 683c 5819 5fbe 7e38 f4bd
000003a0: 9f95 47bd 86fc bcbc 368e 36be ec3c 61be
000003b0: d2ca 28bd eeb2 52bd beff 1fbd 172c 08be
000003c0: b762 b9bc b297 133c e9da 26be 0e22 8fb9
000003d0: 2092 68be 7b5e 9abd 03e1 fbbd cad9 20bd
000003e0: f565 09be 47a6 a5bd 914a 95bd c76b bfbc
000003f0: 6147 7bbe 3c8a 97bd 5579 c7bd 8ca9 bd3d
-0.16869684 -0.20236856 -0.111125946 -0.04289897 -0.12662078 -0.0054878425 -0.016282622 -0.031922106
-0.08347388 -0.039454736 0.05111611 -0.044743184 0.0008532618 -0.011047879 -0.00890196 -0.16801304
-0.07126515 -0.16009542 0.08308988 -0.11378651 -0.17417158 -0.26653865 -0.00581434 -0.040803827
-0.08824341 -0.048642635 -0.15824196 -0.014835092 -0.022506895 0.038044956 -0.11836963 -0.096309796
0.0008541821 -0.16604218 -0.07890303 -0.11951169 -0.07874645 0.0035689394 -0.10846367 -0.010061555
-0.21126288 0.048316382 -0.10064486 0.057194684 -0.049292408 0.0017950195 -0.18761313 -0.04267985
-0.043714423 -0.07697034 0.023804475 -0.1952315 -0.17123488 -0.19832002 -0.16871648 0.0058272593
0.00626005 -0.04283926 -0.080219574 -0.10282087 -0.0013981046 -0.042625856 -0.080780394 -0.15634476
-0.10054924 -0.21994635 -0.040977705 -0.14715536 -0.14497633 -0.016544772 -0.11878432 -0.11869733
-0.13498662 -0.17179602 -0.0724825 -0.23304568 0.031246562 -0.13822313 -0.18717934 -0.14964762
-0.23829046 -0.09951938 0.032878652 -0.17049465 -0.18267097 -0.1388517 -0.013302951 -0.07362705
-0.08374329 0.009510102 0.005694099 -0.14705183 4.1576102e-05 -0.13333413 -0.15519936 -0.07899675
-0.0908367 -0.08355557 0.041163605 -0.057885874 -0.091070235 -0.045442224 -0.25880975 -0.007941177
-0.035124518 -0.15130936 -0.044904836 -0.05859305 -0.071895 -0.20842007 -0.15844542 -0.043720633
-0.079137266 0.03822446 -0.11631767 -0.26009715 0.052009333 -0.21692665 -0.04891268 0.011973536
-0.18526049 -0.037332006 -0.20641607 -0.03508752 -0.0015889056 -0.17448713 -0.0045728646 -0.08875636
-0.20549342 -0.16919562 -0.05322268 -0.1703992 -0.09365943 -0.14187899 -0.13086657 -0.13355176
-0.16391349 -0.024266392 -0.19410367 -0.26270267 0.07460608 -0.112541504 -0.018060712 -0.04224153
0.011837664 0.0062175565 -0.12244218 0.00039791272 0.045724746 -0.03670433 -0.035692696 -0.06513515
-0.07242899 -0.05995576 -0.16664508 -0.028094135 -0.07233724 0.001212019 -0.17880677 -0.08086374
-0.008599295 -0.05688126 0.057453033 0.0062047015 -0.0657846 -0.16184157 -0.1539532 -0.22952826
-0.2015253 -0.04549632 -0.14798063 -0.10117171 -0.14755641 -0.018784994 -0.086914174 -0.1498557
-0.029446049 -0.02855621 -0.060862854 -0.08307874 -0.19413133 -0.11007509 -0.15899393 -0.060049325
0.030546183 -0.11556304 -0.06330815 -0.11413311 -0.027904209 -0.05879314 -0.00691979 -0.051021304
0.0629733 -0.09341853 -0.069006816 -0.08281284 -0.14087439 0.031328585 -0.12759979 -0.11938283
-0.06322341 0.0529819 -0.13516082 -0.06561337 -0.04337693 -0.08352629 -0.032694574 -0.088344954
-0.24579069 -0.013907137 0.052547 0.008066195 0.019132245 -0.050555 -0.03905185 -0.1998177
-0.051225856 -0.13666964 -0.116523474 -0.007896781 -0.07996025 -0.060491063 -0.11156397 -0.021051241
-0.1629319 -0.12426607 -0.043416835 0.09417644 -0.071676776 0.014200824 -0.21787012 -0.119248375
-0.048726674 -0.023069631 -0.17827687 -0.21995896 -0.04120905 -0.051440172 -0.039062254 -0.13298069
-0.022630079 0.009008335 -0.16294445 -0.00027300458 -0.22711992 -0.07537552 -0.12298777 -0.0392702
-0.134178 -0.080883555 -0.07289613 -0.023366822 -0.24538948 -0.07399413 -0.09739939 0.09260854

blocks.layers.3.sa.heads.3.tril f4 [32, 32]
00000000: 6dec 7a3f 0000 0000 0000 0000 0000 0000
00000010: 0000 0000 0000 0000 0000 0000 0000 0000
00000020: 0000 0000 0000 0000 0000 0000 0000 0000
00000030: 0000 0000 0000 0000 0000 0000 0000 0000
00000040: 0000 0000 0000 0000 0000 0000 0000 0000
00000050: 0000 0000 0000 0000 0000 0000 0000 0000
00000060: 0000 0000 0000 0000 0000 0000 0000 0000
00000070: 0000 0000 0000 0000 0000 0000 0000 0000
00000080: 6dec 7a3f 6dec 7a3f 0000 0000 0000 0000
00000090: 0000 0000 0000 0000 0000 0000 0000 0000
000000a0: 0000 0000 0000 0000 0000 0000 0000 0000
000000b0: 0000 0000 0000 0000 0000 0000 0000 0000
000000c0: 0000 0000 0000 0000 0000 0000 0000 0000
000000d0: 0000 0000 0000 0000 0000 0000 0000 0000
000000e0: 0000 0000 0000 0000 0000 0000 0000 0000
000000f0: 0000 0000 0000 0000 0000 0000 0000 0000
00000100: 6dec 7a3f 6dec 7a3f 6dec 7a3f 0000 0000
00000110: 0000 0000 0000 0000 0000 0000 0000 0000
00000120: 0000 0000 0000 0000 0000 0000 0000 0000
00000130: 0000 0000 0000 0000 0000 0000 0000 0000
00000140: 0000 0000 0000 0000 0000 0000 0000 0000
00000150: 0000 0000 0000 0000 0000 0000 0000 0000
00000160: 0000 0000 0000 0000 0000 0000 0000 0000
00000170: 0000 0000 0000 0000 0000 0000 0000 0000
00000180: 6dec 7a3f 6dec 7a3f 6dec 7a3f 6dec 7a3f
00000190: 0000 0000 0000 0000 0000 0000 0000 0000
000001a0: 0000 0000 0000 0000 0000 0000 0000 0000
000001b0: 0000 0000 0000 0000 0000 0000 0000 0000
000001c0: 0000 0000 0000 0000 0000 0000 0000 0000
000001d0: 0000 0000 0000 0000 0000 0000 0000 0000
000001e0: 0000 0000 0000 0000 0000 0000 0000 0000
000001f0: 0000 0000 0000 0000 0000 0000 0000 0000
00000200: 6dec 7a3f 6dec 7a3f 6dec 7a3f 6dec 7a3f
00000210: 6dec 7a3f 0000 0000 0000 0000 0000 0000
00000220: 0000 0000 0000 0000 0000 0000 0000 0000
00000230: 0000 0000 0000 0000 0000 0000 0000 0000
00000240: 0000 0000 0000 0000 0000 0000 0000 0000
00000250: 0000 0000 0000 0000 0000 0000 0000 0000
00000260: 0000 0000 0000 0000 0000 0000 0000 0000
00000270: 0000 0000 0000 0000 0000 0000 0000 0000
00000280: 6dec 7a3f 6dec 7a3f 6dec 7a3f 6dec 7a3f
00000290: 6dec 7a3f 6dec 7a3f 0000 0000 0000 0000
000002a0: 0000 0000 0000 0000 0000 0000 0000 0000
000002b0: 0000 0000 0000 0000 0000 0000 0000 0000
000002c0: 0000 0000 0000 0000 0000 0000 0000 0000
000002d0: 0000 0000 0000 0000 0000 0000 0000 0000
000002e0: 0000 0000 0000 0000 0000 0000 0000 0000
000002f0: 0000 0000 0000 0000 0000 0000 0000 0000
00000300: 6dec 7a3f 6dec 7a3f 6dec 7a3f 6dec 7a3f
00000310: 6dec 7a3f 6dec 7a3f 6dec 7a3f 0000 0000
00000320: 0000 0000 0000 0000 0000 0000 0000 0000
00000330: 0000 0000 0000 0000 0000 0000 0000 0000
00000340: 0000 0000 0000 0000 0000 0000 0000 0000
00000350: 0000 0000 0000 0000 0000 0000 0000 0000
00000360: 0000 0000 0000 0000 0000 0000 0000 0000
00000370: 0000 0000 0000 0000 0000 0000 0000 0000
00000380: 6dec 7a3f 6dec 7a3f 6dec 7a3f 6dec 7a3f
00000390: 6dec 7a3f 6dec 7a3f 6dec 7a3f 6dec 7a3f
000003a0: 0000 0000 0000 0000 0000 0000 0000 0000
000003b0: 0000 0000 0000 0000 0000 0000 0000 0000
000003c0: 0000 0000 0000 0000 0000 0000 0000 0000
000003d0: 0000 0000 0000 0000 0000 0000 0000 0000
000003e0: 0000 0000 0000 0000 0000 0000 0000 0000
000003f0: 0000 0000 0000 0000 0000 0000 0000 0000
0.9801701 0.0 0.0 0.0 0.0 0.0 0.0 0.0
0.0 0.0 0.0 0.0 0.0 0.0 0.0 0.0
0.0 0.0 0.0 0.0 0.0 0.0 0.0 0.0
0.0 0.0 0.0 0.0 0.0 0.0 0.0 0.0
0.9801701 0.9801701 0.0 0.0 0.0 0.0 0.0 0.0
0.0 0.0 0.0 0.0 0.0 0.0 0.0 0.0
0.0 0.0 0.0 0.0 0.0 0.0 0.0 0.0
0.0 0.0 0.0 0.0 0.0 0.0 0.0 0.0
0.9801701 0.9801701 0.9801701 0.0 0.0 0.0 0.0 0.0
0.0 0.0 0.0 0.0 0.0 0.0 0.0 0.0
0.0 0.0 0.0 0.0 0.0 0.0 0.0 0.0
0.0 0.0 0.0 0.0 0.0 0.0 0.0 0.0
0.9801701 0.9801701 0.9801701 0.9801701 0.0 0.0 0.0 0.0
0.0 0.0 0.0 0.0 0.0 0.0 0.0 0.0
0.0 0.0 0.0 0.0 0.0 0.0 0.0 0.0
0.0 0.0 0.0 0.0 0.0 0.0 0.0 0.0
0.9801701 0.9801701 0.9801701 0.9801701 0.9801701 0.0 0.0 0.0
0.0 0.0 0.0 0.0 0.0 0.0 0.0 0.0
0.0 0.0 0.0 0.0 0.0 0.0 0.0 0.0
0.0 0.0 0.0 0.0 0.0 0.0 0.0 0.0
0.9801701 0.9801701 0.9801701 0.9801701 0.9801701 0.9801701 0.0 0.0
0.0 0.0 0.0 0.0 0.0 0.0 0.0 0.0
0.0 0.0 0.0 0.0 0.0 0.0 0.0 0.0
0.0 0.0 0.0 0.0 0.0 0.0 0.0 0.0
0.9801701 0.9801701 0.9801701 0.9801701 0.9801701 0.9801701 0.9801701 0.0
0.0 0.0 0.0 0.0 0.0 0.0 0.0 0.0
0.0 0.0 0.0 0.0 0.0 0.0 0.0 0.0
0.0 0.0 0.0 0.0 0.0 0.0 0.0 0.0
0.9801701 0.9801701 0.9801701 0.9801701 0.9801701 0.9801701 0.9801701 0.9801701
0.0 0.0 0.0 0.0 0.0 0.0 0.0 0.0
0.0 0.0 0.0 0.0 0.0 0.0 0.0 0.0
0.0 0.0 0.0 0.0 0.0 0.0 0.0 0.0

blocks.layers.3.sa.heads.3.key.weight f4 [16, 64]
00000000: 43b0 a9bd d940 d6bd be89 9a3d b604 243e
00000010: 0067 363d c331 55bd 1597 90bd 3d89 7ebd
00000020: f97a 68be b63b e5bd 942e 9e3d 9a5f 70be
00000030: 6340 5c3c 8d23 2f3e 0195 c4bd 1573 29be
00000040: ace8 4b3d 7a7b 13bd a92a 03be 85e8 963d
00000050: 0069 aebd 0d1b fdbc 9dff 7d3d 670a a83d
00000060: 7aee 32be 3a8d 9e3d 2ebe 673d 6287 bf3c
00000070: 8f35 133e 7a59 a43d 02bf adbd 3155 7a3e
00000080: cca7 d8bd 4f26 b43c 081b 06be cd87 403e
00000090: ce02 a93c 2962 5e3d 62d5 98bd b1c4 723d
000000a0: 62b3 bdbd f9b3 c33b cdb1 36bd 0fbb bfbd
000000b0: 3d8b 773d f6d0 2e3e f627 9abd 885b bd3d
000000c0: 1ca0 973c eaa3 9c3d b4bf 323c 8360 453d
000000d0: a4dc 8e3d 2253 8bbe 8e83 5fbd b4aa 6dbd
000000e0: d7a1 88be d9cd 3e3d d73c 2c3d d113 03bd
000000f0: 5b39 073d e1e7 f63d ecda 253e 2b85 d7bd
00000100: 12fb 83bd ae0c 7d3a 7328 933c bc91 073e
00000110: 1ae7 e13d eac2 5dbd 1d9b b6bd 0525 463e
00000120: dbe2 c9bd 891e fdbd ccd2 abbd b2d7 56bd
00000130: b034 10be 8cd7 6e3e fbca 26bd 2c18 d0bc
00000140: 4615 883d 17e8 ec3d d1a4 81bd 7cc2 2d3e
00000150: 27ce 343d 0a29 5fbe 75b6 43be 15d7 07be
00000160: 0039 e7bd f27f 29bd 19f8 263e fd81 2dbe
00000170: d3bb 273d 6b59 e93d b00b 193e 9eb5 633c
00000180: cd23 eb3d 1397 a23e 8405 56be 9506 f0bd
00000190: e9ee 7dbd de86 a53c 299f f33d 5fa7 1ebd
000001a0: fc66 223c 035e 313e 7c6f 873d ed9a 033d
000001b0: 2c0d 8bbc 4010 c13d 31df 15be 3d70 263e
000001c0: 24c6 7a3b 0842 79bd 8e22 b33d 22ed fd3d
000001d0: 09bc 57bd 8a47 dcbd 8dff 0f3c a74f 613e
000001e0: 8ff6 bc3c 054f 123e 8406 55be 3689 02be
000001f0: 48f7 983d e275 a63d 244e 26be f1fd 64bd
00000200: da07 41bd da8e 48bd 28c1 5a3c 18c7 043e
00000210: d284 d3bd 79f9 80bc ea53 02bd a260 5f3e
00000220: 4a5d a23d 4527 e5bc 5792 233e 8562 3abd
00000230: a45a cbbd 3c8c 323b e665 c5bc fab6 d83c
00000240: 499c 1fbd 8a9d f83d 1381 233e 3167 8a3d
00000250: 0d19 d63d 62ec 47bd 80ab 393d af32 2f3e
00000260: 2703 1abe ab44 c5bd 1efc bebd 4a98 0abe
00000270: 49be 62bd b97f fa3c 2968 0bbe 6f94 113e
00000280: dadc 1cbc 0c05 a1bc fff8 ba3c 3730 cebd
00000290: f79d 2dbe 10a1 cbbd 06aa 2b3d 691e 43bd
000002a0: bf0c 83bc 59a0 f83d cec9 6b3c 69b7 00be
000002b0: a43a 2d3e 2f1d 613e 74a9 c4bd 4af5 df3d
000002c0: a79f 563d 8475 f5bd 85c9 39bd 2d9a 013e
000002d0: 34dc 1dbd f02c 8ebd 1fec 3e3c e972 c33c
000002e0: d8b0 263e 93e5 5bbe b028 cb3d 024d 9ebd
000002f0: b146 053d bbb8 773d d8c7 d1bd d247 1abe
00000300: 665f 373e d057 f93d a5e7 1f3a 7a28 b2be
00000310: fafb e23d 19f6 4fbd 16f7 a7bd 4623 113e
00000320: c7fd 593e a2ca d23d e52f 47bd 1e48 e8ba
00000330: dc7a debc 6678 8fbd 5777 b63d 0b69 11bd
00000340: 80fd 0abd 1265 8c3d 4cec 2ebd 72ac 0cbe
00000350: 22ae 8f3e 1657 ffbc 2a49 0b3c 4073 cdbc
00000360: 51b5 303e d167 0ebe 551d 9cbd b541 e1bd
00000370: 42b4 70be 5877 edbc cb3f c13d 2116 6bbe
00000380: a5d8 fa3c d954 a5bd 0e08 c9bc 2f86 b43c
00000390: a54c 3abe f81e 0dbc 3054 12be 9a8e 14be
000003a0: bce7 e3bd ae10 93be 6cb7 d73c 4410 133e
000003b0: be34 10be 1fcd 0ebe bda0 84bd 9038 c8bd
000003c0: f662 df3b 4964 3ebd 7cb1 223c 9bca b3bd
000003d0: dae6 1bbd 22ac b03e 7c1d e6bd 17d3 dd3c
000003e0: 6637 d63c cb5c 5e3d 698b a13d 31b7 cdbd
000003f0: e755 463e 116c e4bd 84c9 4a3e 0f96 9abc
-0.082855724 -0.104615875 0.075458035 0.16017422 0.044531822 -0.05204941 -0.070600666 -0.0621426
-0.2270316 -0.111930296 0.07723728 -0.23473969 0.013443085 0.17103405 -0.09598733 -0.16547807
0.04978244 -0.03600643 -0.12809242 0.07368568 -0.08516121 -0.030896688 0.06201135 0.08205109
-0.17473784 0.077417806 0.056577854 0.023379985 0.143759 0.08024879 -0.084836975 0.2444656
-0.1057888 0.021990923 -0.13096249 0.18801804 0.02063122 0.05429283 -0.074625745 0.05926961
-0.0926273 0.005972382 -0.044603158 -0.093618505 0.060435522 0.170719 -0.07527153 0.09245974
0.018508963 0.076484516 0.010909963 0.048187744 0.069756776 -0.27211863 -0.05456882 -0.058024123
-0.26685974 0.04658303 0.04205021 -0.03200132 0.033013683 0.12055946 0.16196793 -0.10523447
-0.06444372 0.00096530735 0.017963624 0.13239187 0.11030407 -0.054140963 -0.08916304 0.1935006
-0.09857722 -0.1235934 -0.08389816 -0.052451797 -0.14082599 0.23324412 -0.04072092 -0.025402151
0.066446826 0.11567705 -0.06330264 0.16968721 0.044141915 -0.21792999 -0.1911257 -0.13265641
-0.11290169 -0.041381784 0.16305579 -0.16944118 0.040950608 0.11394008 0.14945865 0.013898281
0.11481438 0.31755885 -0.20900542 -0.117200054 -0.06199542 0.020205911 0.11895592 -0.038733836
0.009912249 0.17321019 0.06613061 0.03213017 -0.016974054 0.094269276 -0.14635922 0.16253753
0.0038265074 -0.060853988 0.08746825 0.12398745 -0.05266956 -0.107558325 0.008788955 0.22003041
0.023066787 0.14287956 -0.20803267 -0.12747654 0.0746904 0.08127953 -0.16240746 -0.05590624
-0.04712663 -0.04896436 0.013351716 0.12966573 -0.10328068 -0.015743958 -0.031818308 0.21814206
0.0792795 -0.027972827 0.15973793 -0.04550411 -0.09929398 0.002724423 -0.02409644 0.026454438
-0.038967405 0.12139423 0.15967207 0.067579634 0.10453997 -0.048809417 0.04532957 0.17109178
-0.15040265 -0.09632238 -0.09325431 -0.13534656 -0.05535725 0.030578481 -0.13613953 0.14216779
-0.0095741395 -0.019655727 0.022823809 -0.1006779 -0.1695479 -0.099428296 0.041910194 -0.047636423
-0.015997289 0.12139959 0.014391376 -0.12569965 0.16916901 0.21983789 -0.09602633 0.10935457
0.05239835 -0.11985305 -0.0453582 0.1265647 -0.03854008 -0.06942165 0.011652975 0.023858504
0.16278398 -0.21474294 0.0991987 -0.07729532 0.03253812 0.060478907 -0.10243195 -0.1506646
0.17907485 0.12174952 0.00060998864 -0.34796506 0.11083217 -0.050771806 -0.08201425 0.14173612
0.21288215 0.102925554 -0.04862966 -0.0017721688 -0.027158193 -0.07005386 0.08909481 -0.035500567
-0.033933163 0.06855215 -0.04270582 -0.13737658 0.2806254 -0.031169455 0.00850133 -0.02507937
0.17256667 -0.1390679 -0.07622782 -0.10998861 -0.23506263 -0.028987572 0.09435996 -0.2295766
0.030620882 -0.08072824 -0.024539974 0.02203664 -0.181933 -0.008613341 -0.14289927 -0.14507523
-0.11128184 -0.28723663 0.02633258 0.14361674 -0.1408262 -0.13945435 -0.06475971 -0.097764134
0.006817217 -0.046482358 0.009930011 -0.08778878 -0.038061954 0.34506327 -0.112360924 0.027078195
0.026149463 0.054287713 0.078879185 -0.100447066 0.19368707 -0.111534245 0.19803435 -0.018870382

blocks.layers.3.sa.heads.2.value.weight f4 [16, 64]
00000000: ba74 673d 209e bf3d b00a cebc fe83 0fbd
00000010: 6c69 3abb 9371 2b3d c086 e7bd 91a1 17bc
00000020: 30ec bcbd 7fd7 c8bd 2a13 d53d dd4f 96bc
00000030: d8c9 c3bd a1ec b7bd 3d0d aabd 1ef8 833d
00000040: ff00 1bbe ab38 cfbd 6e3f 23bb 5ee2 34bd
00000050: c0b6 1c3d 4710 053e e34e e339 4cc3 52bd
00000060: 18ca 52bd 7c9f b9bd 935d 073e eb6b 293e
00000070: 6b87 99bc 5d9b 3bbe 6efe 923d 3b95 13ba
00000080: a98b f6bd be0a 7d3d 062c 723d 2daa 50bc
00000090: 5f57 953c d932 783d 2b42 16bc 1b3f cc3c
000000a0: c791 fd3d f831 633d ecbd 26be 4f2b 703c
000000b0: 5120 a0bd 0357 24bd dbc4 67bd 4100 3f3d
000000c0: b3a3 cd3d 9829 fe3c db15 76bd e155 8fbd
000000d0: fadf 853e 4092 93bb 37f4 0ebe abc6 29bd
000000e0: 6ad7 31bd 0ff9 f3bd 6784 393d 735b 3f3c
000000f0: 669b d13c 47cd 2f3d db76 743d d3fc a7bc
00000100: cc8e 5cbd b8fc 793d bc6b e3bd f4e5 f7bd
00000110: 8d25 873d e55b bcbd 6c19 073e 248d 413c
00000120: ac66 403c 3483 26bd 431c d1bd ef2a e9bc
00000130: 4366 ea3d 4cb3 15bd 5f13 543d 3194 11bd
00000140: cbfa 2fbd 1a05 9ebd 2b78 743d 02ec b33c
00000150: 191e ae3d 60f3 c33c 9027 2c3d 5fb0 66bc
00000160: b55d 083c e38c 85bd a3c3 223c f549 a23c
00000170: 970c 103e 511e f5bd c320 dc3d e666 d93d
00000180: acd5 90bc 6b98 ac3d 7a51 063e 2db5 173d
00000190: 167f 84bd 14ec 4c3c 451b 1d3b 612c f33c
000001a0: 02e0 933d 652c 2cbe f041 f7bb 9134 773d
000001b0: c2e7 853d b4a7 d43d 87d0 ac3d 8d25 b53d
000001c0: ea4f da3b 77cd 06be 8c77 bfbd dc22 ca3d
000001d0: ee34 fe3d 9846 ab3d 306a 38be 8f86 733c
000001e0: 3c06 04bd 8e23 c2bd 487b 023a 4b15 e43d
000001f0: e188 babd c1a3 253d b344 2b3d f802 01bb
00000200: 541c 8e3d 5822 f2bd 4564 843d 5752 a2bc
00000210: dd04 1dbd d3e6 bbbd e0dd 5bbc 952d 393d
00000220: 2d3d 9fbd ec04 843d 74a2 d1bd da83 883d
00000230: 7374 673d 6b71 be3d 5f8d 8abc 8a40 d7bc
00000240: 38ea 973d 81c6 48bd 196e dd3d e068 153d
00000250: dac4 cabd 91b8 5fbe 90c6 53bd 01ec 903d
00000260: a3b4 d6bd 2833 d23c 069d c13c d894 d9bc
00000270: 5261 973d edb8 103d f4fa adbd 5ace b8bd
00000280: 4e9a 9c3d 43bf 463c 0891 3a3d 7281 62bd
00000290: 5a3d 0cbd 301b b4bd 0a29 a1bd a6d9 013e
000002a0: 73f1 35bd fa64 cb3d 695c 063d edc3 033e
000002b0: 4e85 8bbd 197f 8fbd 9919 45bd edb0 e63b
000002c0: 2e9d cb3d f49c 4abb b523 293c fd00 18bc
000002d0: 53f3 8dbe 8b16 82bd 9cca b5bd 553a 20bd
000002e0: 49eb 1bbd 85f2 393e 9bb2 b03c dd60 253d
000002f0: 9808 143d c5f7 b2bd 2751 35bc 8a3f 84bd
00000300: f90a c3bd 6264 8f3d fa93 80bc b4ad 0f3e
00000310: 6cc8 11be a2a4 7d3c d3a3 f53d 3690 67bc
00000320: b608 8f3d bad4 fd3c cebc 12be 1401 043e
00000330: f5ab 67bd d8ac 153e fcc2 673d cf99 063e
00000340: 7038 96bd d2e1 733c 5a85 08be 4666 ca3d
00000350: e49f a93d 9394 61be 9501 c6bd ac2a 533b
00000360: 0dca 1b3b 2883 d8bd 1af7 7a3e 482f 713c
00000370: 4fda bb3d 90c1 69bd 6a5f 6e3d 2523 07be
00000380: f161 2e3d 1d93 adbc 53e6 edbb 1097 c13d
00000390: 4707 503d 496f 83bd 2632 b8bc f2e7 25bd
000003a0: 858e 543d c2be 6cbd 6295 55bb e85b f03c
000003b0: 4752 d5bd 2e9e 52bd 57e3 69ba e700 903d
000003c0: 115e aebd a13f 9ebd 14fd 783c 35af 653d
000003d0: c91c 22bc 52ef 493e 273d 84bd 6565 113d
000003e0: d984 653d 30b2 eabd 3d3a 113d dc7d 983d
000003f0: 6cbd 86bd 2470 183c ec1a 713c 8aaf c2bd
0.056507803 0.09356332 -0.02515158 -0.035037987 -0.0028444184 0.04185636 -0.113049984 -0.009254829
-0.09224737 -0.098067276 0.10404046 -0.018348629 -0.09559983 -0.0898068 -0.08303306 0.06443809
-0.15137099 -0.101182304 -0.0024909633 -0.044161193 0.03826022 0.1299449 0.0004335559 -0.05145578
-0.051462263 -0.09063622 0.1321929 0.16545074 -0.01874133 -0.18320985 0.07177435 -0.0005629842
-0.12038357 0.061777823 0.059124015 -0.012735886 0.018230138 0.060595367 -0.009171049 0.024932435
0.123813204 0.055467576 -0.16283387 0.014658763 -0.07818664 -0.040122043 -0.05658422 0.0466311
0.10040989 0.031025693 -0.060079437 -0.06998802 0.26147443 -0.0045035183 -0.13960348 -0.04144923
-0.043418325 -0.119127385 0.045292284 0.011679518 0.025586795 0.042920377 0.059683662 -0.020506298
-0.05384712 0.061032027 -0.11104533 -0.12104407 0.06598959 -0.09197215 0.13193291 0.011813436
0.011743229 -0.04065247 -0.102104686 -0.028462855 0.11445286 -0.036547944 0.051776286 -0.035541717
-0.042963784 -0.07715817 0.059684914 0.021963123 0.085018344 0.023919761 0.042029917 -0.014080136
0.008323123 -0.06521013 0.009934339 0.019810656 0.14067303 -0.11968673 0.10748436 0.106153294
-0.017680012 0.08427509 0.13117018 0.037038017 -0.06469552 0.012507457 0.0023972553 0.029684247
0.072204605 -0.1681381 -0.007545702 0.060352866 0.06538345 0.10383549 0.08438211 0.08845053
0.0066623585 -0.13164316 -0.09348974 0.0986993 0.12412439 0.08363074 -0.18009257 0.014863624
-0.032232508 -0.09479438 0.0004977477 0.11136874 -0.09108139 0.04043937 0.041813564 -0.0019685607
0.06938997 -0.11822957 0.064644374 -0.019814653 -0.038334716 -0.091748856 -0.013419598 0.045209486
-0.0777534 0.06446251 -0.102360636 0.06665774 0.05650754 0.092989765 -0.016913114 -0.026275892
0.074177206 -0.049017433 0.10812015 0.03647697 -0.09900828 -0.2184775 -0.051703036 0.07076264
-0.104836725 0.025659159 0.023634445 -0.026560232 0.07391609 0.03533261 -0.08495131 -0.090237334
0.07646619 0.012130561 0.04554847 -0.05529923 -0.034238197 -0.08794248 -0.07869156 0.12680683
-0.044419717 0.09931369 0.032802973 0.12867709 -0.06812535 -0.07006664 -0.048120115 0.007040134
0.09942089 -0.0030916305 0.010323455 -0.009277579 -0.27724704 -0.06351956 -0.08876535 -0.03911813
-0.038066182 0.1815892 0.02156954 0.04037558 0.03614101 -0.087386645 -0.0110667115 -0.064574316
-0.09523577 0.070015684 -0.01569556 0.14031106 -0.14236611 0.015481146 0.119941376 -0.014133504
0.06984083 0.030985225 -0.14329836 0.12891036 -0.056560475 0.14616716 0.056582436 0.13144611
-0.07334983 0.014885383 -0.1333212 0.09882788 0.0828245 -0.22029333 -0.096682705 0.003222148
0.0023771555 -0.10571891 0.24508324 0.014720745 0.091724984 -0.05706936 0.058196463 -0.13197
0.042573873 -0.021188313 -0.007260123 0.09452641 0.05078819 -0.0641771 -0.02248485 -0.040504403
0.05189373 -0.05779911 -0.003259026 0.0293407 -0.10416084 -0.051420383 -0.0008922121 0.07031422
-0.085140355 -0.0772698 0.015197057 0.056075294 -0.009894558 0.197202 -0.064569764 0.035497088
0.056034897 -0.11459768 0.03545593 0.07445881 -0.06579098 0.00930408 0.014715891 -0.09506138

blocks.layers.3.sa.heads.1.tril f4 [32, 32]
00000000: 6dec 7a3f 0000 0000 0000 0000 0000 0000
00000010: 0000 0000 0000 0000 0000 0000 0000 0000
00000020: 0000 0000 0000 0000 0000 0000 0000 0000
00000030: 0000 0000 0000 0000 0000 0000 0000 0000
00000040: 0000 0000 0000 0000 0000 0000 0000 0000
00000050: 0000 0000 0000 0000 0000 0000 0000 0000
00000060: 0000 0000 0000 0000 0000 0000 0000 0000
00000070: 0000 0000 0000 0000 0000 0000 0000 0000
00000080: 6dec 7a3f 6dec 7a3f 0000 0000 0000 0000
00000090: 0000 0000 0000 0000 0000 0000 0000 0000
000000a0: 0000 0000 0000 0000 0000 0000 0000 0000
000000b0: 0000 0000 0000 0000 0000 0000 0000 0000
000000c0: 0000 0000 0000 0000 0000 0000 0000 0000
000000d0: 0000 0000 0000 0000 0000 0000 0000 0000
000000e0: 0000 0000 0000 0000 0000 0000 0000 0000
000000f0: 0000 0000 0000 0000 0000 0000 0000 0000
00000100: 6dec 7a3f 6dec 7a3f 6dec 7a3f 0000 0000
00000110: 0000 0000 0000 0000 0000 0000 0000 0000
00000120: 0000 0000 0000 0000 0000 0000 0000 0000
00000130: 0000 0000 0000 0000 0000 0000 0000 0000
00000140: 0000 0000 0000 0000 0000 0000 0000 0000
00000150: 0000 0000 0000 0000 0000 0000 0000 0000
00000160: 0000 0000 0000 0000 0000 0000 0000 0000
00000170: 0000 0000 0000 0000 0000 0000 0000 0000
00000180: 6dec 7a3f 6dec 7a3f 6dec 7a3f 6dec 7a3f
00000190: 0000 0000 0000 0000 0000 0000 0000 0000
000001a0: 0000 0000 0000 0000 0000 0000 0000 0000
000001b0: 0000 0000 0000 0000 0000 0000 0000 0000
000001c0: 0000 0000 0000 0000 0000 0000 0000 0000
000001d0: 0000 0000 0000 0000 0000 0000 0000 0000
000001e0: 0000 0000 0000 0000 0000 0000 0000 0000
000001f0: 0000 0000 0000 0000 0000 0000 0000 0000
00000200: 6dec 7a3f 6dec 7a3f 6dec 7a3f 6dec 7a3f
00000210: 6dec 7a3f 0000 0000 0000 0000 0000 0000
00000220: 0000 0000 0000 0000 0000 0000 0000 0000
00000230: 0000 0000 0000 0000 0000 0000 0000 0000
00000240: 0000 0000 0000 0000 0000 0000 0000 0000
00000250: 0000 0000 0000 0000 0000 0000 0000 0000
00000260: 0000 0000 0000 0000 0000 0000 0000 0000
00000270: 0000 0000 0000 0000 0000 0000 0000 0000
00000280: 6dec 7a3f 6dec 7a3f 6dec 7a3f 6dec 7a3f
00000290: 6dec 7a3f 6dec 7a3f 0000 0000 0000 0000
000002a0: 0000 0000 0000 0000 0000 0000 0000 0000
000002b0: 0000 0000 0000 0000 0000 0000 0000 0000
000002c0: 0000 0000 0000 0000 0000 0000 0000 0000
000002d0: 0000 0000 0000 0000 0000 0000 0000 0000
000002e0: 0000 0000 0000 0000 0000 0000 0000 0000
000002f0: 0000 0000 0000 0000 0000 0000 0000 0000
00000300: 6dec 7a3f 6dec 7a3f 6dec 7a3f 6dec 7a3f
00000310: 6dec 7a3f 6dec 7a3f 6dec 7a3f 0000 0000
00000320: 0000 0000 0000 0000 0000 0000 0000 0000
00000330: 0000 0000 0000 0000 0000 0000 0000 0000
00000340: 0000 0000 0000 0000 0000 0000 0000 0000
00000350: 0000 0000 0000 0000 0000 0000 0000 0000
00000360: 0000 0000 0000 0000 0000 0000 0000 0000
00000370: 0000 0000 0000 0000 0000 0000 0000 0000
00000380: 6dec 7a3f 6dec 7a3f 6dec 7a3f 6dec 7a3f
00000390: 6dec 7a3f 6dec 7a3f 6dec 7a3f 6dec 7a3f
000003a0: 0000 0000 0000 0000 0000 0000 0000 0000
000003b0: 0000 0000 0000 0000 0000 0000 0000 0000
000003c0: 0000 0000 0000 0000 0000 0000 0000 0000
000003d0: 0000 0000 0000 0000 0000 0000 0000 0000
000003e0: 0000 0000 0000 0000 0000 0000 0000 0000
000003f0: 0000 0000 0000 0000 0000 0000 0000 0000
0.9801701 0.0 0.0 0.0 0.0 0.0 0.0 0.0
0.0 0.0 0.0 0.0 0.0 0.0 0.0 0.0
0.0 0.0 0.0 0.0 0.0 0.0 0.0 0.0
0.0 0.0 0.0 0.0 0.0 0.0 0.0 0.0
0.9801701 0.9801701 0.0 0.0 0.0 0.0 0.0 0.0
0.0 0.0 0.0 0.0 0.0 0.0 0.0 0.0
0.0 0.0 0.0 0.0 0.0 0.0 0.0 0.0
0.0 0.0 0.0 0.0 0.0 0.0 0.0 0.0
0.9801701 0.9801701 0.9801701 0.0 0.0 0.0 0.0 0.0
0.0 0.0 0.0 0.0 0.0 0.0 0.0 0.0
0.0 0.0 0.0 0.0 0.0 0.0 0.0 0.0
0.0 0.0 0.0 0.0 0.0 0.0 0.0 0.0
0.9801701 0.9801701 0.9801701 0.9801701 0.0 0.0 0.0 0.0
0.0 0.0 0.0 0.0 0.0 0.0 0.0 0.0
0.0 0.0 0.0 0.0 0.0 0.0 0.0 0.0
0.0 0.0 0.0 0.0 0.0 0.0 0.0 0.0
0.9801701 0.9801701 0.9801701 0.9801701 0.9801701 0.0 0.0 0.0
0.0 0.0 0.0 0.0 0.0 0.0 0.0 0.0
0.0 0.0 0.0 0.0 0.0 0.0 0.0 0.0
0.0 0.0 0.0 0.0 0.0 0.0 0.0 0.0
0.9801701 0.9801701 0.9801701 0.9801701 0.9801701 0.9801701 0.0 0.0
0.0 0.0 0.0 0.0 0.0 0.0 0.0 0.0
0.0 0.0 0.0 0.0 0.0 0.0 0.0 0.0
0.0 0.0 0.0 0.0 0.0 0.0 0.0 0.0
0.9801701 0.9801701 0.9801701 0.9801701 0.9801701 0.9801701 0.9801701 0.0
0.0 0.0 0.0 0.0 0.0 0.0 0.0 0.0
0.0 0.0 0.0 0.0 0.0 0.0 0.0 0.0
0.0 0.0 0.0 0.0 0.0 0.0 0.0 0.0
0.9801701 0.9801701 0.9801701 0.9801701 0.9801701 0.9801701 0.9801701 0.9801701
0.0 0.0 0.0 0.0 0.0 0.0 0.0 0.0
0.0 0.0 0.0 0.0 0.0 0.0 0.0 0.0
0.0 0.0 0.0 0.0 0.0 0.0 0.0 0.0

blocks.layers.3.sa.heads.1.value.weight f4 [16, 64]
00000000: 34bc 873a 5029 d0bb 5713 773c 0f44 adbd
00000010: b4ad c53d 68bf 253e f4fe 8abc 80bf c53d
00000020: f811 d93d 950d fd3d d7aa e73c 3456 4fbe
00000030: 7ad6 98bd 033e 2cbd 84f6 aebc 6af0 233d
00000040: c723 373d 0d24 a73c 4069 4bbd 7002 2abe
00000050: 3f09 83bd b922 dd3c 30c4 723d 7a92 d33b
00000060: aa5b 17be e598 8b3c 86fb 303b d015 c9bc
00000070: 1850 653d 6c10 c23b 739d bc3d 950a 2dbb
00000080: 5cad 8a3d a6de 183d f10d 47bd db38 993d
00000090: 6ccd d4bd 9b34 ee3d f759 c4bb 3b86 a7bd
000000a0: 5ad9 903c 40d2 febc ee9f d9bc 65ca 32bb
000000b0: 75a3 30bd 2a5b 723d 0a6e bc3c 565c 8bbd
000000c0: 35d9 75bc 548c 91bd fbb3 53bd 6122 febc
000000d0: 7d75 143e b393 1b3e b725 663d 3963 1e3e
000000e0: 9953 97bd 5c39 9dbd 7ac3 cebd 0675 e63d
000000f0: 2fe2 2e3d dc58 933d a9b0 cebd d5c4 9bbd
00000100: 0a15 f9bb 64a9 87bc 519c 3f3d 0cdc 9c3d
00000110: 8406 b73c 38a3 3a3d 4807 d0bc 4ae2 073d
00000120: f746 a43c 4548 c13d 5f71 a83d 1bbe c83c
00000130: f68d d63d a313 183e 3c3b 3dbc ecde ca3b
00000140: 5589 aabc 24cf 88b9 a8f6 1b3b 467f f9bc
00000150: 5c9f 8fbc 08dd 87bd 44b6 afbd ffe2 423c
00000160: d1b3 c43d 9280 5abd b347 323d 6640 a2bd
00000170: 033f 5abd ddd3 68bc 5c73 3d3e 9de3 d4bc
00000180: 85d8 89bd a7e5 f63d d537 273e 9502 1a3d
00000190: 7aa4 a23d 85b0 20be 3d4b a23d 756f 4ebd
000001a0: 7b26 e03d 6b62 d03d bacc 82bd 0886 42bd
000001b0: f704 1b3e 7800 bd3c 0497 d93d b72d 893d
000001c0: 9c06 d63d 7d9a 2e3c da09 91bc 9f02 81bd
000001d0: d4a7 c8bd 46db 12be 9c01 5bbc b745 353c
000001e0: 24e9 893d 80db ce3c 2bfd 6cbd 409e ebbd
000001f0: 2304 183e 48bf 9fbd 102f 3abe 2805 543d
00000200: e283 95bc a770 233d aff5 b1bd d19f 1dbc
00000210: f87e 7abc 8c53 c73d 94b7 8b3d 1154 193c
00000220: 1b28 353d bbbf 953d 117e 2bbe 8f22 75bd
00000230: 6918 d2bd b2e7 c3bd e880 4a3d 1a16 c8bc
00000240: 74ee 803c eb4f 9dbd 3bc1 833d 2bba 3abc
00000250: 7d69 8cbd bc6f ff39 44b5 97bd e896 05bd
00000260: a5a8 7ebc 75c5 0ebd 8aeb 1bbe 5858 473d
00000270: b98a f43d 8c6d 313d bb3a bcbd e5da 633c
00000280: 417e 843d ec58 d23d 5ecc f3bd 4def ecbd
00000290: 3006 dd3c b884 3a3a ff1b f2bb 7fc5 5bbd
000002a0: fee5 8a3d 35e2 debd 7ab0 aebd 4a83 04bd
000002b0: 131f 16be b42e 3ebd 070a 853c c356 97bd
000002c0: a62d 76bd e2da 3c3d 6528 c9bd ac81 a63d
000002d0: 72ee 30bd 89f4 453d 002f d8bd 16d8 483c
000002e0: e7eb 053d 5000 533d cb02 e23d 1d8e 2d3e
000002f0: 4a90 243d cc29 ff3c 72ac 993d e05d 8c3d
00000300: 4802 12bc d106 afbc 12fb 80bd 8c82 06bc
00000310: 67f7 383d c8dd 9f3c 910b f23d e3cd 8bbd
00000320: c01c 38bd b7b5 a33d 0c6e 23be b08c c0bd
00000330: 6ecc ebbd 3aa9 99bd 9369 fdbd cf45 d4bd
00000340: 8952 22bd 87cd c03c 9d64 253d d57d 3c3e
00000350: 284b efbd f232 51bd 59c2 a03d c8b3 9f3b
00000360: 92c4 693d 1c38 b1bd 07f4 c4bd 6757 73bd
00000370: e8bd e53d 1667 efbd 2d46 f0bb 4b3b 0b3e
00000380: b44b 18be 20f7 1fbc eb3f d83d 06fc 0abd
00000390: 6b89 b33d d938 83bd a8e4 b73d 9864 a93c
000003a0: a872 3e3d 6129 ee3d 9ea2 563d f886 b53d
000003b0: 7cca 973d d826 1c3e 2726 4e3d 24fc 8fbd
000003c0: 3258 313d a9b9 3c3d 7139 ec3c e27d f438
000003d0: dc2d 77bd 8ed8 9abd de6b ffbd 71ba 983d
000003e0: 0c16 a73d 0e75 4bbd eaf6 5d3d 48cb 8e3d
000003f0: 750f c8bd 7765 22bd b848 883d 80d0 833d
0.0010355772 -0.006352581 0.015080295 -0.08460247 0.09652272 0.16186297 -0.016967274 0.09655666
0.105991304 0.12356106 0.028279705 -0.20247728 -0.07462783 -0.042051326 -0.021357782 0.0400242
0.044711854 0.020402933 -0.04966092 -0.16602492 -0.06398248 0.026994096 0.05926913 0.0064566704
-0.14781061 0.01704068 0.0027005388 -0.024546534 0.055984586 0.005922368 0.092097186 -0.0026404012
0.06771347 0.03732171 -0.04859728 0.074815474 -0.103907436 0.116311274 -0.00599217 -0.08179899
0.017681766 -0.031106114 -0.026565518 -0.002728128 -0.043124635 0.059168972 0.02300169 -0.06804721
-0.0150053995 -0.071068436 -0.051685315 -0.031022253 0.14497943 0.15193062 0.05618831 0.15467538
-0.07388992 -0.07676956 -0.10095878 0.11252789 0.042696174 0.07194683 -0.10092289 -0.07605902
-0.007601385 -0.016560264 0.046779934 0.07659158 0.022341974 0.045565814 -0.025394097 0.03317479
0.02005337 0.094376124 0.08224749 0.024504712 0.10476296 0.14851241 -0.011549767 0.006191125
-0.020817438 -0.00026094273 0.0023798142 -0.030456197 -0.017532043 -0.06633955 -0.08579686 0.01189494
0.0960461 -0.05334527 0.04352541 -0.07922439 -0.05328275 -0.014210668 0.18501037 -0.02598744
-0.06730751 0.120555215 0.16329892 0.03760012 0.07941528 -0.15692337 0.07924507 -0.050399262
0.109448396 0.10175022 -0.06386705 -0.047491103 0.15138613 0.023071513 0.10624507 0.066981725
0.104504794 0.01065695 -0.017704893 -0.06299328 -0.09797636 -0.14341459 -0.013367083 0.011063985
0.06733921 0.02525115 -0.057858627 -0.11504793 0.14845328 -0.07800156 -0.18182015 0.05176273
-0.018251363 0.039902356 -0.086894386 -0.009620623 -0.015289061 0.09732732 0.06822124 0.009358422
0.0442277 0.0731196 -0.1674731 -0.05984741 -0.10258562 -0.09565677 0.04943934 -0.024424601
0.015738703 -0.07681259 0.0643334 -0.011396925 -0.06856058 0.0004872064 -0.074076205 -0.03261462
-0.015543138 -0.03485628 -0.1522657 0.048668236 0.11940522 0.043317363 -0.091908894 0.013907169
0.064693935 0.10270867 -0.11904214 -0.115690805 0.02698049 0.00071151135 -0.0073885913 -0.053655144
0.06782149 -0.10882989 -0.08529754 -0.03235177 -0.14660291 -0.04643126 0.016240133 -0.07389595
-0.060102127 0.04610718 -0.09822158 0.08130202 -0.04319615 0.04832891 -0.105558395 0.01225855
0.032695677 0.05151397 0.11035689 0.16948743 0.040176667 0.03114786 0.075035945 0.06853843
-0.008911677 -0.021365555 -0.06297888 -0.008209836 0.045157816 0.019514933 0.11818612 -0.06826379
-0.044949293 0.07993644 -0.15959948 -0.09401834 -0.11513601 -0.075029805 -0.12373652 -0.103648774
-0.039629493 0.023535503 0.040379155 0.18407376 -0.11684257 -0.051073976 0.07849569 0.0048737265
0.05707223 -0.0865328 -0.09616857 -0.059409525 0.11217862 -0.11689584 -0.0073325844 0.13596837
-0.14872628 -0.009763509 0.105590664 -0.033931755 0.08766445 -0.06407327 0.089791596 0.02067785
0.046496063 0.11628986 0.052401178 0.08863634 0.07411668 0.15249193 0.050329354 -0.07030514
0.043297 0.046075497 0.028835984 0.00011658274 -0.06034647 -0.07560836 -0.12471746 0.07457436
0.08158502 -0.04967218 0.054190554 0.069723666 -0.09768573 -0.039647546 0.06654495 0.064362526

blocks.layers.3.sa.heads.0.value.weight f4 [16, 64]
00000000: 7eb0 533e ff17 e43b 696d 303d 005d 063d
00000010: 99df c23d db31 3b3d e250 263e 79ef 413d
00000020: 3c6c 043e 4b69 0d3e 730e 90bd 1bd7 9fbc
00000030: 5ff1 40bd 0da3 99bd c659 5abd b393 153d
00000040: 280d 923d 2f62 c4bd ebca 28bd d5b7 6ebd
00000050: 9b28 6f3e 93b4 f63b 59ee 973d 0429 0fbd
00000060: 384e 6abc 2b50 503d 8a07 843d 83b9 d7bd
00000070: 3165 da3d 3e48 94bd b9f4 3bbd 1136 0d3e
00000080: eb1f af3d e745 b3bd 7387 0ebe 1de5 583d
00000090: e9bf 9cbd fa20 90bd 0c39 86bd 844d 883d
000000a0: dc51 163e 3811 adbd 2700 dd3d 0568 f43c
000000b0: 0939 85bb f017 ff3d cb2b 86bd aa3d 0b3d
000000c0: ca71 7bbe 69c5 493d 8f53 c7bd bbd2 8cbd
000000d0: af7a 57bd 8697 cdbd a60f 833d 6628 cebd
000000e0: 381a 2b3c 50e6 2ebd a2d3 853d ac81 5ebd
000000f0: 606c dc3d 643f 00bd b43c 66bd 834b 903d
00000100: db69 743e b1c7 00be 5de0 b23d 3bb9 143d
00000110: 4856 203e bb66 ec3d 200b f0bd ccfb edba
00000120: 1d91 103e dd0c 71bc 36ab 703d 3202 ea3d
00000130: 7360 3f3d 03a4 033e 64e9 d03d a014 9c3d
00000140: fed6 2b3d e83f 4f3d 3a90 51bc eae3 26be
00000150: 403d 053e 95e2 85bd 8b10 973d 3894 d63d
00000160: f792 d23d 21c8 3abc 7d6f 47bc 3b94 c2bd
00000170: e3f8 7abd 8fb8 a8bd fc3e 37be 636c 963c
00000180: 902d 1c3c f405 8abc 7bb0 0dbe d720 14be
00000190: e7a8 dfbc f5b7 053e fd83 063d 4f3a 833d
000001a0: 483f 02be 852b 88bd ab61 e6bd d0fc 8a3d
000001b0: 7a16 1f3c e767 bebd e3d9 313d c2e9 5bbd
000001c0: 4897 8dbd 57c0 90bc f2d0 20bc 3044 b13d
000001d0: 6c4e 9a3d f015 d53d f262 0bbd deb9 0ebe
000001e0: 2701 c4bd 9a69 08be 1b2a 763d 0b22 eb3d
000001f0: 0bc5 983c 8ca2 78bd 9aaa 1c3d 096c 03bd
00000200: 36f7 3dbe 4d40 b23d 231e 813c 0365 e0ba
00000210: a49f 893d abf6 c73d 72fe a93d d31c 4dbd
00000220: d832 eebd 6a37 76bc f70e 063e aa04 69bd
00000230: 4959 073e 41a4 16be a640 cabd 88cf 14be
00000240: 3210 c83d 0c65 a13d ad76 abbc 1bfa c23d
00000250: 2dd9 bebb e1f5 30bc 671c 9ebc d656 22be
00000260: edf4 603d 6706 a03d a677 023d db00 a93d
00000270: 2605 aabd 4557 d8bd 4fed d7bc edcd 52bd
00000280: 446a 3abd a17a eebd 2647 62bc d559 c03c
00000290: af91 da3d b14b cfbc 7a94 b1bd ef17 c63d
000002a0: f31e c03c ddbc 1fbc c2a0 3c3d f9d0 943d
000002b0: 36f6 4f3d 40ee 1bbe e4ba be3d f0f1 9ebd
000002c0: 38f0 1f3e 3e2f 4dbd cee7 a83c f0a2 a23d
000002d0: f196 da3d 4cb1 12be 8051 30bd ca5b deb9
000002e0: 2914 1e3e 0be7 423c f2be 1dbe d813 9dbd
000002f0: f2fe 3f3d 668c 14be 9e4a 433d 83b3 aebd
00000300: d3d6 7c3d 14c2 0a3d 213d 2cbd c3fe b93a
00000310: a37d 99bd ddd2 9bbd 80c2 2ebd 2c34 3abd
00000320: b108 303d 116d efbd e391 0d3c d6a5 9dbd
00000330: 00c7 2f3d e2d5 f13a 83d0 0d3d 3184 ef3b
00000340: 3000 af3d 4532 f03b 45f4 f6bd 6d59 003e
00000350: 2ee8 8cbc a2ca a9bd fda8 12be c4da 073d
00000360: cb2a 133e 9143 893d 2e76 473d 54fc d8bd
00000370: 3a42 feba eab7 0ebc a849 703d 994d 1abd
00000380: 240c b03d 2deb 043c 2f4c 3a3d bae3 c43d
00000390: b40c 9fbd 37af 973d 3af2 ab3c 5a47 96bd
000003a0: c561 763d 3d28 093e ac63 073e eae6 c4bc
000003b0: 662f 343d 3e43 3e3c 5ab1 e6bc 5c72 c2bb
000003c0: 9006 153c 040a 0e3e b03e 9fbd f6c1 9c3b
000003d0: f31f d9bb 67d0 33be 9252 0b3d 9126 4dbe
000003e0: 44b4 203d 9b1a 3e3d 3f72 863c 2856 24bd
000003f0: 542d b03d 9d5c 6f3d 17bb 30bd b32c fa3d
0.20672795 0.0069608684 0.04307309 0.032803535 0.09515304 0.045701843 0.16241792 0.04734752
0.12931913 0.13809697 -0.07034006 -0.01951175 -0.04710519 -0.075018026 -0.05330827 0.03651781
0.071314156 -0.095890395 -0.041209143 -0.058280785 0.23355334 0.0075288503 0.07418508 -0.034951225
-0.014300875 0.050857704 0.064467505 -0.105334304 0.10663832 -0.072403416 -0.045887683 0.13790156
0.0855101 -0.08753567 -0.13918857 0.052952874 -0.076537915 -0.0703754 -0.065538496 0.0665541
0.14679664 -0.0845055 0.10791045 0.029834757 -0.004065637 0.124557376 -0.065513216 0.033994354
-0.24555126 0.04926053 -0.097327344 -0.06876131 -0.052607235 -0.100386664 0.06399469 -0.10066299
0.010443263 -0.042700112 0.065345064 -0.054322883 0.107628584 -0.031310454 -0.056210235 0.07045653
0.23868506 -0.12576176 0.087342 0.036309462 0.15657914 0.11543032 -0.11720872 -0.0018156706
0.14117856 -0.0147125395 0.05875703 0.114262 0.04672284 0.12855534 0.10200766 0.076211214
0.04195308 0.050598055 -0.012790734 -0.1629788 0.13011646 -0.06537358 0.07376202 0.10477489
0.102819376 -0.0114002535 -0.012172577 -0.09500929 -0.061272513 -0.08238327 -0.1789512 0.01836223
0.009532347 -0.016848542 -0.13836853 -0.14465652 -0.027302219 0.13058455 0.032840718 0.06407606
-0.12719452 -0.06648926 -0.112490974 0.067865014 0.009709949 -0.092971615 0.043420684 -0.053689726
-0.0691362 -0.01766984 -0.009815441 0.08655584 0.07534489 0.10404575 -0.03402991 -0.1393809
-0.09570532 -0.13321534 0.06009875 0.114811026 0.018648645 -0.06070189 0.038248636 -0.032085452
-0.18551335 0.08703671 0.01576144 -0.0017119948 0.06719902 0.09763845 0.08300485 -0.050076317
-0.116307914 -0.01502786 0.13091646 -0.056889214 0.13217653 -0.14711095 -0.09875612 -0.14532292
0.09768714 0.07880601 -0.020930612 0.0952036 -0.005824229 -0.01080081 -0.019300653 -0.15853438
0.05492108 0.07813721 0.031852387 0.08252116 -0.08301763 -0.1056352 -0.026358275 -0.051465917
-0.0455115 -0.11644483 -0.013810908 0.023480335 0.10672318 -0.025304647 -0.08670898 0.09672534
0.023452258 -0.009749618 0.046051748 0.07266421 0.050771914 -0.15227604 0.0931299 -0.0776099
0.1561898 -0.05009388 0.020618346 0.07941234 0.10673321 -0.14325446 -0.043046474 -0.00042411528
0.15437378 0.011895905 -0.15404871 -0.076698005 0.046873994 -0.14506683 0.047678582 -0.08530333
0.06172831 0.033876494 -0.042050485 0.0014190305 -0.074946664 -0.07608578 -0.04266596 -0.04545991
0.04297704 -0.11690725 0.008640739 -0.07697646 0.04291439 0.0018450583 0.03462268 0.0073094596
0.08544958 0.0073302113 -0.120583095 0.12534113 -0.017200556 -0.08290602 -0.14322276 0.033167616
0.14371793 0.067023404 0.04869669 -0.10595003 -0.0019398399 -0.008710841 0.058663994 -0.03767166
0.08596066 0.008112711 0.04548281 0.09613748 -0.07766095 0.074064665 0.020989526 -0.07337828
0.060151834 0.13394256 0.13221616 -0.02403589 0.043990515 0.0116127115 -0.02816074 -0.005934043
0.009095803 0.13871008 -0.077756286 0.004783864 -0.006626123 -0.17559968 0.034014292 -0.20034243
0.039234415 0.04641209 0.016411899 -0.040121228 0.08602396 0.058437932 -0.043147173 0.12215557

blocks.layers.2.ln2.weight f4 [64]
00000000: bf00 913f 114a 8d3f 197a 893f d00e 803f
00000010: db32 7d3f f7c9 863f 99a9 883f cb48 503f
00000020: c029 7b3f 7192 7c3f 7994 883f 5a75 6d3f
00000030: 071e 5d3f 374b 7a3f 426c 573f 3abf 893f
00000040: 4e52 833f b6d5 8b3f 4698 883f ad5b 8c3f
00000050: 5187 6c3f 447d 823f 5fb2 953f 87aa 663f
00000060: 3251 813f e053 753f 6578 633f 520a 8e3f
00000070: 93cb 873f fe1d 8e3f 346e 7d3f edaa 853f
00000080: 9e3e 673f c6d5 5d3f 7af8 823f 6929 5a3f
00000090: 9c5c 893f 8b73 853f 9bd1 873f 1600 8f3f
000000a0: 24a1 933f 5541 653f ceac 803f 8426 7b3f
000000b0: fd08 8a3f e0f1 943f 6fda 6d3f e3cc 6a3f
000000c0: da7b 8c3f 83ba 873f bc1a 873f 90c8 813f
000000d0: 423f 653f ff9d 813f ecca 563f 59c4 7c3f
000000e0: aefe 703f 2acc 8c3f 7952 5c3f 6814 863f
000000f0: 9e79 763f 029e 733f 92fb 833f 226f 7f3f
1.1328353 1.1038228 1.0740386 1.000452 0.98905724 1.0530385 1.0676757 0.81361073
0.9811058 0.9866095 1.067031 0.9275719 0.86373943 0.9777102 0.84149563 1.0761483
1.0259492 1.0924594 1.067147 1.0965477 0.92393976 1.0194478 1.169506 0.90103954
1.0102904 0.9583111 0.8885558 1.10969 1.0609001 1.1102903 0.9899628 1.0442787
0.9032992 0.8665432 1.0232079 0.85219437 1.0731387 1.0425886 1.0610842 1.1171901
1.1533551 0.89552814 1.0052736 0.98105645 1.0783993 1.1636314 0.9291143 0.9171888
1.0975296 1.0603794 1.0555034 1.0139332 0.8954965 1.0126342 0.83903384 0.987371
0.9413861 1.0999806 0.86063343 1.0474977 0.96279323 0.95162976 1.0311148 0.9977895

blocks.layers.2.ln2.bias f4 [64]
00000000: 1670 163e 30bd f23d 64e5 10be f4d4 0dbe
00000010: c437 d53b 3ac4 fcbd d08f 15be c769 9e3d
00000020: 16ea 08be d1de 91bd 04ca 653e 7f90 a7bd
00000030: 82c5 b1bc cfe3 1f3d 9197 20be 4457 a5bc
00000040: 8168 cd3b 2979 fbbd 0bf8 42bd 2ed3 2b3e
00000050: d4f9 1d3e b1b8 8bbe 920a 5a3e 4aed 49bc
00000060: c1e1 69be 38e8 10be 62e7 31bd b500 bf3d
00000070: 0793 c23d ed8e f03d 648b 92bc 4a8f 16bd
00000080: ef57 ca3c a8e2 92bd 88bf 5bbe e463 f23d
00000090: ec98 a9bd e944 4abe c232 fbbd 9907 dd3d
000000a0: 1c39 19be 2327 1f3e 77b0 d8bd 674e 1a3e
000000b0: bc9d 2bbd 835f 143e ceab 2b3e 82ca 2dbc
000000c0: 7917 98bd 83a4 ca3d 7a60 173e e3b4 003e
000000d0: bda8 dfbd ea24 cb3d 551e 09be 3b1f efbc
000000e0: eae3 1a3d 1928 d13c 3af5 523d 9f19 08bb
000000f0: 4a4b 3c3e 31dd ca3d 9917 87bc b0e0 ae3d
0.14691195 0.11852491 -0.14150006 -0.13850766 0.006506892 -0.12342115 -0.14605641 0.07735019
-0.13370547 -0.07122577 0.22440344 -0.08181857 -0.021700624 0.039035615 -0.15682818 -0.020183213
0.0062685614 -0.12278969 -0.047599833 0.16779777 0.15427333 -0.27289346 0.21293095 -0.0123246405
-0.22840025 -0.14151084 -0.043433554 0.09326307 0.095006995 0.11746011 -0.017888732 -0.036757745
0.024700133 -0.071721375 -0.21459782 0.11835459 -0.08281121 -0.1975285 -0.12265541 0.10792465
-0.14963192 0.15542273 -0.10580533 0.1506897 -0.041898474 0.1448956 0.16764757 -0.010607364
-0.07426352 0.09894659 0.14782897 0.12569003 -0.10920856 0.0991915 -0.13390477 -0.029189697
0.037815012 0.025531815 0.051503398 -0.0020767224 0.18388095 0.0990547 -0.016490744 0.085389495
